…
2025-04-23 16:09:26.602 | INFO     | models.latent_points_ada:__init__:38 - [Build Unet] extra_feature_channels=1, input_dim=3
2025-04-23 16:09:26.881 | INFO     | utils.diffusion_continuous:__init__:581 - VPSDE: beta_start=0.1, beta_end=20.0, sigma2_0=0.0
2025-04-23 16:09:26.882 | INFO     | utils.diffusion_pvd:__init__:36 - [Build Discrete Diffusion object] beta_start=0.0001, beta_end=0.02, mode=linear, num_steps=1000
2025-04-23 16:09:26.888 | INFO     | trainers.train_2prior:build_prior:447 - DAE: ModuleList(
  (0): PriorSEDrop(
    (act): SiLU()
    (temb_fun): PositionalEmbedding()
    (temb_layer): Sequential(
      (0): Conv2d(128, 512, kernel_size=(1, 1), stride=(1, 1))
      (1): Conv2d(512, 2048, kernel_size=(1, 1), stride=(1, 1))
    )
    (input_layer): Conv2d(128, 2048, kernel_size=(1, 1), stride=(1, 1))
    (output_layer): Conv2d(2048, 128, kernel_size=(1, 1), stride=(1, 1))
    (all_modules): ModuleList(
      (0): ResBlockSE_withdropout(2048, 2048, drop=0.300000)
      (1): ResBlockSE_withdropout(2048, 2048, drop=0.300000)
      (2): ResBlockSE_withdropout(2048, 2048, drop=0.300000)
      (3): ResBlockSE_withdropout(2048, 2048, drop=0.300000)
      (4): ResBlockSE_withdropout(2048, 2048, drop=0.300000)
      (5): ResBlockSE_withdropout(2048, 2048, drop=0.300000)
      (6): ResBlockSE_withdropout(2048, 2048, drop=0.300000)
      (7): ResBlockSE_withdropout(2048, 2048, drop=0.300000)
    )
  )
  (1): PVCNN2Prior(
    (embedf): Sequential(
      (0): Linear(in_features=64, out_features=64, bias=True)
      (1): LeakyReLU(negative_slope=0.1, inplace=True)
      (2): Linear(in_features=64, out_features=64, bias=True)
    )
    (sa_layers): ModuleList(
      (0): Sequential(
        (0): PVConv(
          (voxelization): Voxelization(resolution=32, normalized eps = 0)
          (voxel_layers): ModuleList(
            (0): Conv3d(4, 32, kernel_size=(3, 3, 3), stride=(1, 1, 1), padding=(1, 1, 1))
            (1): AdaGN(GN(8, 32), Linear(128, 64))
            (2): Swish()
            (3): Dropout(p=0.1, inplace=False)
            (4): Conv3d(32, 32, kernel_size=(3, 3, 3), stride=(1, 1, 1), padding=(1, 1, 1))
            (5): AdaGN(GN(8, 32), Linear(128, 64))
            (6): SE(32, 32)
          )
          (point_features): SharedMLP(
            (layers): ModuleList(
              (0): Conv1d(4, 32, kernel_size=(1,), stride=(1,))
              (1): AdaGN(GN(8, 32), Linear(128, 64))
              (2): Swish()
            )
          )
        )
        (1): PVConv(
          (voxelization): Voxelization(resolution=32, normalized eps = 0)
          (voxel_layers): ModuleList(
            (0): Conv3d(32, 32, kernel_size=(3, 3, 3), stride=(1, 1, 1), padding=(1, 1, 1))
            (1): AdaGN(GN(8, 32), Linear(128, 64))
            (2): Swish()
            (3): Dropout(p=0.1, inplace=False)
            (4): Conv3d(32, 32, kernel_size=(3, 3, 3), stride=(1, 1, 1), padding=(1, 1, 1))
            (5): AdaGN(GN(8, 32), Linear(128, 64))
            (6): SE(32, 32)
          )
          (point_features): SharedMLP(
            (layers): ModuleList(
              (0): Conv1d(32, 32, kernel_size=(1,), stride=(1,))
              (1): AdaGN(GN(8, 32), Linear(128, 64))
              (2): Swish()
            )
          )
        )
        (2): PointNetSAModule(
          num_centers=1024, out_channels=64
          (groupers): ModuleList(
            (0): BallQuery(radius=0.1, num_neighbors=32, include coordinates)
          )
          (mlps): ModuleList(
            (0): SharedMLP(
              (layers): ModuleList(
                (0): Conv2d(35, 32, kernel_size=(1, 1), stride=(1, 1))
                (1): AdaGN(GN(8, 32), Linear(128, 64))
                (2): Swish()
                (3): Conv2d(32, 64, kernel_size=(1, 1), stride=(1, 1))
                (4): AdaGN(GN(8, 64), Linear(128, 128))
                (5): Swish()
              )
            )
          )
        )
      )
      (1): Sequential(
        (0): PVConv(
          (voxelization): Voxelization(resolution=16, normalized eps = 0)
          (voxel_layers): ModuleList(
            (0): Conv3d(128, 64, kernel_size=(3, 3, 3), stride=(1, 1, 1), padding=(1, 1, 1))
            (1): AdaGN(GN(8, 64), Linear(128, 128))
            (2): Swish()
            (3): Dropout(p=0.1, inplace=False)
            (4): Conv3d(64, 64, kernel_size=(3, 3, 3), stride=(1, 1, 1), padding=(1, 1, 1))
            (5): AdaGN(GN(8, 64), Linear(128, 128))
            (6): SE(64, 64)
          )
          (attn): LinearAttention(
            (to_qkv): Conv2d(64, 384, kernel_size=(1, 1), stride=(1, 1), bias=False)
            (to_out): Conv2d(128, 64, kernel_size=(1, 1), stride=(1, 1))
          )
          (point_features): SharedMLP(
            (layers): ModuleList(
              (0): Conv1d(128, 64, kernel_size=(1,), stride=(1,))
              (1): AdaGN(GN(8, 64), Linear(128, 128))
              (2): Swish()
            )
          )
        )
        (1): PointNetSAModule(
          num_centers=256, out_channels=128
          (groupers): ModuleList(
            (0): BallQuery(radius=0.2, num_neighbors=32, include coordinates)
          )
          (mlps): ModuleList(
            (0): SharedMLP(
              (layers): ModuleList(
                (0): Conv2d(67, 64, kernel_size=(1, 1), stride=(1, 1))
                (1): AdaGN(GN(8, 64), Linear(128, 128))
                (2): Swish()
                (3): Conv2d(64, 128, kernel_size=(1, 1), stride=(1, 1))
                (4): AdaGN(GN(8, 128), Linear(128, 256))
                (5): Swish()
              )
            )
          )
        )
      )
      (2): Sequential(
        (0): PVConv(
          (voxelization): Voxelization(resolution=8, normalized eps = 0)
          (voxel_layers): ModuleList(
            (0): Conv3d(192, 128, kernel_size=(3, 3, 3), stride=(1, 1, 1), padding=(1, 1, 1))
            (1): AdaGN(GN(8, 128), Linear(128, 256))
            (2): Swish()
            (3): Dropout(p=0.1, inplace=False)
            (4): Conv3d(128, 128, kernel_size=(3, 3, 3), stride=(1, 1, 1), padding=(1, 1, 1))
            (5): AdaGN(GN(8, 128), Linear(128, 256))
            (6): SE(128, 128)
          )
          (point_features): SharedMLP(
            (layers): ModuleList(
              (0): Conv1d(192, 128, kernel_size=(1,), stride=(1,))
              (1): AdaGN(GN(8, 128), Linear(128, 256))
              (2): Swish()
            )
          )
        )
        (1): PointNetSAModule(
          num_centers=64, out_channels=128
          (groupers): ModuleList(
            (0): BallQuery(radius=0.4, num_neighbors=32, include coordinates)
          )
          (mlps): ModuleList(
            (0): SharedMLP(
              (layers): ModuleList(
                (0): Conv2d(131, 128, kernel_size=(1, 1), stride=(1, 1))
                (1): AdaGN(GN(8, 128), Linear(128, 256))
                (2): Swish()
                (3): Conv2d(128, 128, kernel_size=(1, 1), stride=(1, 1))
                (4): AdaGN(GN(8, 128), Linear(128, 256))
                (5): Swish()
              )
            )
          )
        )
      )
      (3): PointNetSAModule(
        num_centers=16, out_channels=128
        (groupers): ModuleList(
          (0): BallQuery(radius=0.8, num_neighbors=32, include coordinates)
        )
        (mlps): ModuleList(
          (0): SharedMLP(
            (layers): ModuleList(
              (0): Conv2d(195, 128, kernel_size=(1, 1), stride=(1, 1))
              (1): AdaGN(GN(8, 128), Linear(128, 256))
              (2): Swish()
              (3): Conv2d(128, 128, kernel_size=(1, 1), stride=(1, 1))
              (4): AdaGN(GN(8, 128), Linear(128, 256))
              (5): Swish()
              (6): Conv2d(128, 128, kernel_size=(1, 1), stride=(1, 1))
              (7): AdaGN(GN(8, 128), Linear(128, 256))
              (8): Swish()
            )
          )
        )
      )
    )
    (global_att): LinearAttention(
      (to_qkv): Conv2d(128, 768, kernel_size=(1, 1), stride=(1, 1), bias=False)
      (to_out): Conv2d(256, 128, kernel_size=(1, 1), stride=(1, 1))
    )
    (fp_layers): ModuleList(
      (0): Sequential(
        (0): PointNetFPModule(
          (mlp): SharedMLP(
            (layers): ModuleList(
              (0): Conv1d(320, 128, kernel_size=(1,), stride=(1,))
              (1): AdaGN(GN(8, 128), Linear(128, 256))
              (2): Swish()
              (3): Conv1d(128, 128, kernel_size=(1,), stride=(1,))
              (4): AdaGN(GN(8, 128), Linear(128, 256))
              (5): Swish()
            )
          )
        )
        (1): PVConv(
          (voxelization): Voxelization(resolution=8, normalized eps = 0)
          (voxel_layers): ModuleList(
            (0): Conv3d(128, 128, kernel_size=(3, 3, 3), stride=(1, 1, 1), padding=(1, 1, 1))
            (1): AdaGN(GN(8, 128), Linear(128, 256))
            (2): Swish()
            (3): Dropout(p=0.1, inplace=False)
            (4): Conv3d(128, 128, kernel_size=(3, 3, 3), stride=(1, 1, 1), padding=(1, 1, 1))
            (5): AdaGN(GN(8, 128), Linear(128, 256))
            (6): SE(128, 128)
          )
          (point_features): SharedMLP(
            (layers): ModuleList(
              (0): Conv1d(128, 128, kernel_size=(1,), stride=(1,))
              (1): AdaGN(GN(8, 128), Linear(128, 256))
              (2): Swish()
            )
          )
        )
        (2): PVConv(
          (voxelization): Voxelization(resolution=8, normalized eps = 0)
          (voxel_layers): ModuleList(
            (0): Conv3d(128, 128, kernel_size=(3, 3, 3), stride=(1, 1, 1), padding=(1, 1, 1))
            (1): AdaGN(GN(8, 128), Linear(128, 256))
            (2): Swish()
            (3): Dropout(p=0.1, inplace=False)
            (4): Conv3d(128, 128, kernel_size=(3, 3, 3), stride=(1, 1, 1), padding=(1, 1, 1))
            (5): AdaGN(GN(8, 128), Linear(128, 256))
            (6): SE(128, 128)
          )
          (point_features): SharedMLP(
            (layers): ModuleList(
              (0): Conv1d(128, 128, kernel_size=(1,), stride=(1,))
              (1): AdaGN(GN(8, 128), Linear(128, 256))
              (2): Swish()
            )
          )
        )
        (3): PVConv(
          (voxelization): Voxelization(resolution=8, normalized eps = 0)
          (voxel_layers): ModuleList(
            (0): Conv3d(128, 128, kernel_size=(3, 3, 3), stride=(1, 1, 1), padding=(1, 1, 1))
            (1): AdaGN(GN(8, 128), Linear(128, 256))
            (2): Swish()
            (3): Dropout(p=0.1, inplace=False)
            (4): Conv3d(128, 128, kernel_size=(3, 3, 3), stride=(1, 1, 1), padding=(1, 1, 1))
            (5): AdaGN(GN(8, 128), Linear(128, 256))
            (6): SE(128, 128)
          )
          (point_features): SharedMLP(
            (layers): ModuleList(
              (0): Conv1d(128, 128, kernel_size=(1,), stride=(1,))
              (1): AdaGN(GN(8, 128), Linear(128, 256))
              (2): Swish()
            )
          )
        )
      )
      (1): Sequential(
        (0): PointNetFPModule(
          (mlp): SharedMLP(
            (layers): ModuleList(
              (0): Conv1d(320, 128, kernel_size=(1,), stride=(1,))
              (1): AdaGN(GN(8, 128), Linear(128, 256))
              (2): Swish()
              (3): Conv1d(128, 128, kernel_size=(1,), stride=(1,))
              (4): AdaGN(GN(8, 128), Linear(128, 256))
              (5): Swish()
            )
          )
        )
        (1): PVConv(
          (voxelization): Voxelization(resolution=8, normalized eps = 0)
          (voxel_layers): ModuleList(
            (0): Conv3d(128, 128, kernel_size=(3, 3, 3), stride=(1, 1, 1), padding=(1, 1, 1))
            (1): AdaGN(GN(8, 128), Linear(128, 256))
            (2): Swish()
            (3): Dropout(p=0.1, inplace=False)
            (4): Conv3d(128, 128, kernel_size=(3, 3, 3), stride=(1, 1, 1), padding=(1, 1, 1))
            (5): AdaGN(GN(8, 128), Linear(128, 256))
            (6): SE(128, 128)
          )
          (point_features): SharedMLP(
            (layers): ModuleList(
              (0): Conv1d(128, 128, kernel_size=(1,), stride=(1,))
              (1): AdaGN(GN(8, 128), Linear(128, 256))
              (2): Swish()
            )
          )
        )
        (2): PVConv(
          (voxelization): Voxelization(resolution=8, normalized eps = 0)
          (voxel_layers): ModuleList(
            (0): Conv3d(128, 128, kernel_size=(3, 3, 3), stride=(1, 1, 1), padding=(1, 1, 1))
            (1): AdaGN(GN(8, 128), Linear(128, 256))
            (2): Swish()
            (3): Dropout(p=0.1, inplace=False)
            (4): Conv3d(128, 128, kernel_size=(3, 3, 3), stride=(1, 1, 1), padding=(1, 1, 1))
            (5): AdaGN(GN(8, 128), Linear(128, 256))
            (6): SE(128, 128)
          )
          (point_features): SharedMLP(
            (layers): ModuleList(
              (0): Conv1d(128, 128, kernel_size=(1,), stride=(1,))
              (1): AdaGN(GN(8, 128), Linear(128, 256))
              (2): Swish()
            )
          )
        )
        (3): PVConv(
          (voxelization): Voxelization(resolution=8, normalized eps = 0)
          (voxel_layers): ModuleList(
            (0): Conv3d(128, 128, kernel_size=(3, 3, 3), stride=(1, 1, 1), padding=(1, 1, 1))
            (1): AdaGN(GN(8, 128), Linear(128, 256))
            (2): Swish()
            (3): Dropout(p=0.1, inplace=False)
            (4): Conv3d(128, 128, kernel_size=(3, 3, 3), stride=(1, 1, 1), padding=(1, 1, 1))
            (5): AdaGN(GN(8, 128), Linear(128, 256))
            (6): SE(128, 128)
          )
          (point_features): SharedMLP(
            (layers): ModuleList(
              (0): Conv1d(128, 128, kernel_size=(1,), stride=(1,))
              (1): AdaGN(GN(8, 128), Linear(128, 256))
              (2): Swish()
            )
          )
        )
      )
      (2): Sequential(
        (0): PointNetFPModule(
          (mlp): SharedMLP(
            (layers): ModuleList(
              (0): Conv1d(256, 128, kernel_size=(1,), stride=(1,))
              (1): AdaGN(GN(8, 128), Linear(128, 256))
              (2): Swish()
              (3): Conv1d(128, 128, kernel_size=(1,), stride=(1,))
              (4): AdaGN(GN(8, 128), Linear(128, 256))
              (5): Swish()
            )
          )
        )
        (1): PVConv(
          (voxelization): Voxelization(resolution=16, normalized eps = 0)
          (voxel_layers): ModuleList(
            (0): Conv3d(128, 128, kernel_size=(3, 3, 3), stride=(1, 1, 1), padding=(1, 1, 1))
            (1): AdaGN(GN(8, 128), Linear(128, 256))
            (2): Swish()
            (3): Dropout(p=0.1, inplace=False)
            (4): Conv3d(128, 128, kernel_size=(3, 3, 3), stride=(1, 1, 1), padding=(1, 1, 1))
            (5): AdaGN(GN(8, 128), Linear(128, 256))
            (6): SE(128, 128)
          )
          (point_features): SharedMLP(
            (layers): ModuleList(
              (0): Conv1d(128, 128, kernel_size=(1,), stride=(1,))
              (1): AdaGN(GN(8, 128), Linear(128, 256))
              (2): Swish()
            )
          )
        )
        (2): PVConv(
          (voxelization): Voxelization(resolution=16, normalized eps = 0)
          (voxel_layers): ModuleList(
            (0): Conv3d(128, 128, kernel_size=(3, 3, 3), stride=(1, 1, 1), padding=(1, 1, 1))
            (1): AdaGN(GN(8, 128), Linear(128, 256))
            (2): Swish()
            (3): Dropout(p=0.1, inplace=False)
            (4): Conv3d(128, 128, kernel_size=(3, 3, 3), stride=(1, 1, 1), padding=(1, 1, 1))
            (5): AdaGN(GN(8, 128), Linear(128, 256))
            (6): SE(128, 128)
          )
          (point_features): SharedMLP(
            (layers): ModuleList(
              (0): Conv1d(128, 128, kernel_size=(1,), stride=(1,))
              (1): AdaGN(GN(8, 128), Linear(128, 256))
              (2): Swish()
            )
          )
        )
      )
      (3): Sequential(
        (0): PointNetFPModule(
          (mlp): SharedMLP(
            (layers): ModuleList(
              (0): Conv1d(193, 128, kernel_size=(1,), stride=(1,))
              (1): AdaGN(GN(8, 128), Linear(128, 256))
              (2): Swish()
              (3): Conv1d(128, 128, kernel_size=(1,), stride=(1,))
              (4): AdaGN(GN(8, 128), Linear(128, 256))
              (5): Swish()
              (6): Conv1d(128, 64, kernel_size=(1,), stride=(1,))
              (7): AdaGN(GN(8, 64), Linear(128, 128))
              (8): Swish()
            )
          )
        )
        (1): PVConv(
          (voxelization): Voxelization(resolution=32, normalized eps = 0)
          (voxel_layers): ModuleList(
            (0): Conv3d(64, 64, kernel_size=(3, 3, 3), stride=(1, 1, 1), padding=(1, 1, 1))
            (1): AdaGN(GN(8, 64), Linear(128, 128))
            (2): Swish()
            (3): Dropout(p=0.1, inplace=False)
            (4): Conv3d(64, 64, kernel_size=(3, 3, 3), stride=(1, 1, 1), padding=(1, 1, 1))
            (5): AdaGN(GN(8, 64), Linear(128, 128))
            (6): SE(64, 64)
          )
          (point_features): SharedMLP(
            (layers): ModuleList(
              (0): Conv1d(64, 64, kernel_size=(1,), stride=(1,))
              (1): AdaGN(GN(8, 64), Linear(128, 128))
              (2): Swish()
            )
          )
        )
        (2): PVConv(
          (voxelization): Voxelization(resolution=32, normalized eps = 0)
          (voxel_layers): ModuleList(
            (0): Conv3d(64, 64, kernel_size=(3, 3, 3), stride=(1, 1, 1), padding=(1, 1, 1))
            (1): AdaGN(GN(8, 64), Linear(128, 128))
            (2): Swish()
            (3): Dropout(p=0.1, inplace=False)
            (4): Conv3d(64, 64, kernel_size=(3, 3, 3), stride=(1, 1, 1), padding=(1, 1, 1))
            (5): AdaGN(GN(8, 64), Linear(128, 128))
            (6): SE(64, 64)
          )
          (point_features): SharedMLP(
            (layers): ModuleList(
              (0): Conv1d(64, 64, kernel_size=(1,), stride=(1,))
              (1): AdaGN(GN(8, 64), Linear(128, 128))
              (2): Swish()
            )
          )
        )
      )
    )
    (classifier): ModuleList(
      (0): SharedMLP(
        (layers): ModuleList(
          (0): Conv1d(64, 128, kernel_size=(1,), stride=(1,))
          (1): AdaGN(GN(8, 128), Linear(128, 256))
          (2): Swish()
        )
      )
      (1): Dropout(p=0.1, inplace=False)
      (2): Conv1d(128, 4, kernel_size=(1,), stride=(1,))
    )
  )
)
2025-04-23 16:09:26.893 | INFO     | trainers.train_2prior:build_prior:448 - DAE: param size = 88.594116M 
2025-04-23 16:09:26.893 | INFO     | trainers.base_trainer:build_data:152 - start build_data
2025-04-23 16:09:28.462 | INFO     | datasets.pointflow_datasets:get_datasets:398 - get_datasets: tr_sample_size=2048,  te_sample_size=2048;  random_subsample=1 normalize_global=True normalize_std_per_axix=False normalize_per_shape=False recenter_per_shape=False
…
